Neural Network Tools for STM32 family v1.7.0 (stm.ai v8.1.0-19520)
Created date          : 2023-12-26 15:23:58
Parameters            : generate --name mnv1 -m C:/Users/zevni/Desktop/FE_2023-2024/PROJECT/ScientificPaper/models_and_such/mbnv3/models/model_quant_v3.tflite --type tflite --compression none --verbosity 1 --workspace C:\Users\zevni\AppData\Local\Temp\mxAI_workspace55761297468290010954576510063030924 --output C:\Users\zevni\.stm32cubemx\mnv1_output --allocate-inputs --series stm32f7 --allocate-outputs

Exec/report summary (generate)
----------------------------------------------------------------------------------------------------------------------------------------
model file         :   C:\Users\zevni\Desktop\FE_2023-2024\PROJECT\ScientificPaper\models_and_such\mbnv3\models\model_quant_v3.tflite   
type               :   tflite                                                                                                           
c_name             :   mnv1                                                                                                             
compression        :   none                                                                                                             
options            :   allocate-inputs, allocate-outputs                                                                                
optimization       :   balanced                                                                                                         
target/series      :   stm32f7                                                                                                          
workspace dir      :   C:\Users\zevni\AppData\Local\Temp\mxAI_workspace55761297468290010954576510063030924                              
output dir         :   C:\Users\zevni\.stm32cubemx\mnv1_output                                                                          
model_fmt          :   ss/sa per channel                                                                                                
model_name         :   model_quant_v3                                                                                                   
model_hash         :   3fda02c03893d501d2cdb28dce3a1cf5                                                                                 
params #           :   437,834 items (445.39 KiB)                                                                                       
----------------------------------------------------------------------------------------------------------------------------------------
input 1/1          :   'serving_default_input_80' (domain:activations/**default**)                                                      
                   :   49152 items, 48.00 KiB, ai_u8, s=0.00784314, zp=127, (1,128,128,3)                                               
output 1/1         :   'conversion_48' (domain:activations/**default**)                                                                 
                   :   26 items, 26 B, ai_u8, s=0.00390625, zp=0, (1,26)                                                                
macc               :   16,680,230                                                                                                       
weights (ro)       :   455,776 B (445.09 KiB) (1 segment) / -1,295,560(-74.0%) vs float model                                           
activations (rw)   :   82,648 B (80.71 KiB) (1 segment) *                                                                               
ram (total)        :   82,648 B (80.71 KiB) = 82,648 + 0 + 0                                                                            
----------------------------------------------------------------------------------------------------------------------------------------
(*) 'input'/'output' buffers can be used from the activations buffer

Model name - model_quant_v3 ['serving_default_input_80'] ['conversion_48']
------ -------------------------------------------------------- ----------------------------- --------------- ----------- ---------------------------------------- --- --------------- ------------------ ----------------------------- 
m_id   layer (type,original)                                    oshape                        param/size             macc                             connected to   | c_size          c_macc             c_type                        
------ -------------------------------------------------------- ----------------------------- --------------- ----------- ---------------------------------------- --- --------------- ------------------ ----------------------------- 
0      serving_default_input_80 (Input, )                       [b:1,h:128,h:128,w:128,c:3]                                                                          |                 +98,304(+100.0%)   converter_oi8[0]              
       conversion_0 (Conversion, QUANTIZE)                      [b:1,h:128,h:128,w:128,c:3]                        98,304                 serving_default_input_80   |                 -98,304(-100.0%)   
------ -------------------------------------------------------- ----------------------------- --------------- ----------- ---------------------------------------- --- --------------- ------------------ ----------------------------- 
1      conv2d_1 (Conv2D, CONV_2D)                               [b:1,h:64,h:64,w:64,c:16]     448/496           1,769,488                             conversion_0   |                                    optimized_conv2d_oi8[1]       
       nl_1_nl (Nonlinearity, CONV_2D)                          [b:1,h:64,h:64,w:64,c:16]                          65,536                                 conv2d_1   |                 -65,536(-100.0%)   
------ -------------------------------------------------------- ----------------------------- --------------- ----------- ---------------------------------------- --- --------------- ------------------ ----------------------------- 
2      pad_2 (Pad, PAD)                                         [b:1,h:65,h:65,w:65,c:16]                                                                  nl_1_nl   |                                    pad_oi8[2]                    
------ -------------------------------------------------------- ----------------------------- --------------- ----------- ---------------------------------------- --- --------------- ------------------ ----------------------------- 
3      conv2d_3 (Conv2D, DEPTHWISE_CONV_2D)                     [b:1,h:32,h:32,w:32,c:16]     160/208             147,472                                    pad_2   |                                    conv2d_oi8[3]                 
       nl_3_nl (Nonlinearity, DEPTHWISE_CONV_2D)                [b:1,h:32,h:32,w:32,c:16]                          16,384                                 conv2d_3   |                 -16,384(-100.0%)   
------ -------------------------------------------------------- ----------------------------- --------------- ----------- ---------------------------------------- --- --------------- ------------------ ----------------------------- 
4      conv2d_4 (Conv2D, CONV_2D)                               [b:1,h:32,h:32,w:32,c:16]     272/320             262,160                                  nl_3_nl   |                                    conv2d_oi8[4]                 
------ -------------------------------------------------------- ----------------------------- --------------- ----------- ---------------------------------------- --- --------------- ------------------ ----------------------------- 
5      conv2d_5 (Conv2D, CONV_2D)                               [b:1,h:32,h:32,w:32,c:72]     1,224/1,440       1,179,720                                 conv2d_4   |                                    conv2d_oi8[5]                 
       nl_5_nl (Nonlinearity, CONV_2D)                          [b:1,h:32,h:32,w:32,c:72]                          73,728                                 conv2d_5   |                 -73,728(-100.0%)   
------ -------------------------------------------------------- ----------------------------- --------------- ----------- ---------------------------------------- --- --------------- ------------------ ----------------------------- 
6      pad_6 (Pad, PAD)                                         [b:1,h:33,h:33,w:33,c:72]                                                                  nl_5_nl   |                                    pad_oi8[6]                    
------ -------------------------------------------------------- ----------------------------- --------------- ----------- ---------------------------------------- --- --------------- ------------------ ----------------------------- 
7      conv2d_7 (Conv2D, DEPTHWISE_CONV_2D)                     [b:1,h:16,h:16,w:16,c:72]     720/936             165,960                                    pad_6   |                                    conv2d_oi8[7]                 
       nl_7_nl (Nonlinearity, DEPTHWISE_CONV_2D)                [b:1,h:16,h:16,w:16,c:72]                          18,432                                 conv2d_7   |                 -18,432(-100.0%)   
------ -------------------------------------------------------- ----------------------------- --------------- ----------- ---------------------------------------- --- --------------- ------------------ ----------------------------- 
8      conv2d_8 (Conv2D, CONV_2D)                               [b:1,h:16,h:16,w:16,c:24]     1,752/1,824         442,392                                  nl_7_nl   |                                    conv2d_oi8[8]                 
------ -------------------------------------------------------- ----------------------------- --------------- ----------- ---------------------------------------- --- --------------- ------------------ ----------------------------- 
9      conv2d_9 (Conv2D, CONV_2D)                               [b:1,h:16,h:16,w:16,c:88]     2,200/2,464         540,760                                 conv2d_8   |                                    conv2d_oi8[9]                 
       nl_9_nl (Nonlinearity, CONV_2D)                          [b:1,h:16,h:16,w:16,c:88]                          22,528                                 conv2d_9   |                 -22,528(-100.0%)   
------ -------------------------------------------------------- ----------------------------- --------------- ----------- ---------------------------------------- --- --------------- ------------------ ----------------------------- 
10     conv2d_10 (Conv2D, DEPTHWISE_CONV_2D)                    [b:1,h:16,h:16,w:16,c:88]     880/1,144           202,840                                  nl_9_nl   |                                    pad_oi8/conv2d_oi8[10, 11]    
       nl_10_nl (Nonlinearity, DEPTHWISE_CONV_2D)               [b:1,h:16,h:16,w:16,c:88]                          22,528                                conv2d_10   |                 -22,528(-100.0%)   
------ -------------------------------------------------------- ----------------------------- --------------- ----------- ---------------------------------------- --- --------------- ------------------ ----------------------------- 
11     conv2d_11 (Conv2D, CONV_2D)                              [b:1,h:16,h:16,w:16,c:24]     2,136/2,208         540,696                                 nl_10_nl   |                                    conv2d_oi8[12]                
------ -------------------------------------------------------- ----------------------------- --------------- ----------- ---------------------------------------- --- --------------- ------------------ ----------------------------- 
12     eltwise_12 (Eltwise, ADD)                                [b:1,h:16,h:16,w:16,c:24]                           6,144                                 conv2d_8   |                                    eltwise_integer/sum_oi8[13]   
                                                                                                                                                         conv2d_11   | 
------ -------------------------------------------------------- ----------------------------- --------------- ----------- ---------------------------------------- --- --------------- ------------------ ----------------------------- 
13     conv2d_13 (Conv2D, CONV_2D)                              [b:1,h:16,h:16,w:16,c:96]     2,400/2,688         589,920                               eltwise_12   |                                    conv2d_oi8[14]                
       nl_13_nl (Nonlinearity, CONV_2D)                         [b:1,h:16,h:16,w:16,c:96]                          24,576                                conv2d_13   |                 -24,576(-100.0%)   
------ -------------------------------------------------------- ----------------------------- --------------- ----------- ---------------------------------------- --- --------------- ------------------ ----------------------------- 
14     pad_14 (Pad, PAD)                                        [b:1,h:17,h:17,w:17,c:96]                                                                 nl_13_nl   |                                    pad_oi8[15]                   
------ -------------------------------------------------------- ----------------------------- --------------- ----------- ---------------------------------------- --- --------------- ------------------ ----------------------------- 
15     conv2d_15 (Conv2D, DEPTHWISE_CONV_2D)                    [b:1,h:8,h:8,w:8,c:96]        960/1,248            55,392                                   pad_14   |                                    conv2d_oi8[16]                
       nl_15_nl (Nonlinearity, DEPTHWISE_CONV_2D)               [b:1,h:8,h:8,w:8,c:96]                              6,144                                conv2d_15   |                 -6,144(-100.0%)    
------ -------------------------------------------------------- ----------------------------- --------------- ----------- ---------------------------------------- --- --------------- ------------------ ----------------------------- 
16     conv2d_16 (Conv2D, CONV_2D)                              [b:1,h:8,h:8,w:8,c:40]        3,880/4,000         245,800                                 nl_15_nl   |                                    conv2d_oi8[17]                
------ -------------------------------------------------------- ----------------------------- --------------- ----------- ---------------------------------------- --- --------------- ------------------ ----------------------------- 
17     conv2d_17 (Conv2D, CONV_2D)                              [b:1,h:8,h:8,w:8,c:240]       9,840/10,560        614,640                                conv2d_16   | -44(-0.4%)      -5,122(-0.8%)      conv2d_oi8[18]                
       nl_17_nl (Nonlinearity, CONV_2D)                         [b:1,h:8,h:8,w:8,c:240]                            15,360                                conv2d_17   |                 -15,360(-100.0%)   
------ -------------------------------------------------------- ----------------------------- --------------- ----------- ---------------------------------------- --- --------------- ------------------ ----------------------------- 
18     conv2d_18 (Conv2D, DEPTHWISE_CONV_2D)                    [b:1,h:8,h:8,w:8,c:240]       2,400/3,120         138,480                                 nl_17_nl   | -12(-0.4%)      -577(-0.4%)        pad_oi8/conv2d_oi8[19, 20]    
       nl_18_nl (Nonlinearity, DEPTHWISE_CONV_2D)               [b:1,h:8,h:8,w:8,c:240]                            15,360                                conv2d_18   |                 -15,360(-100.0%)   
------ -------------------------------------------------------- ----------------------------- --------------- ----------- ---------------------------------------- --- --------------- ------------------ ----------------------------- 
19     conv2d_19 (Conv2D, CONV_2D)                              [b:1,h:8,h:8,w:8,c:40]        9,640/9,760         614,440                                 nl_18_nl   | -40(-0.4%)      -2,560(-0.4%)      conv2d_oi8[21]                
------ -------------------------------------------------------- ----------------------------- --------------- ----------- ---------------------------------------- --- --------------- ------------------ ----------------------------- 
20     eltwise_20 (Eltwise, ADD)                                [b:1,h:8,h:8,w:8,c:40]                              2,560                                conv2d_16   |                                    eltwise_integer/sum_oi8[22]   
                                                                                                                                                         conv2d_19   | 
------ -------------------------------------------------------- ----------------------------- --------------- ----------- ---------------------------------------- --- --------------- ------------------ ----------------------------- 
21     conv2d_21 (Conv2D, CONV_2D)                              [b:1,h:8,h:8,w:8,c:240]       9,840/10,560        614,640                               eltwise_20   |                                    conv2d_oi8[23]                
       nl_21_nl (Nonlinearity, CONV_2D)                         [b:1,h:8,h:8,w:8,c:240]                            15,360                                conv2d_21   |                 -15,360(-100.0%)   
------ -------------------------------------------------------- ----------------------------- --------------- ----------- ---------------------------------------- --- --------------- ------------------ ----------------------------- 
22     conv2d_22 (Conv2D, DEPTHWISE_CONV_2D)                    [b:1,h:8,h:8,w:8,c:240]       2,400/3,120         138,480                                 nl_21_nl   |                                    pad_oi8/conv2d_oi8[24, 25]    
       nl_22_nl (Nonlinearity, DEPTHWISE_CONV_2D)               [b:1,h:8,h:8,w:8,c:240]                            15,360                                conv2d_22   |                 -15,360(-100.0%)   
------ -------------------------------------------------------- ----------------------------- --------------- ----------- ---------------------------------------- --- --------------- ------------------ ----------------------------- 
23     conv2d_23 (Conv2D, CONV_2D)                              [b:1,h:8,h:8,w:8,c:40]        9,640/9,760         614,440                                 nl_22_nl   |                                    conv2d_oi8[26]                
------ -------------------------------------------------------- ----------------------------- --------------- ----------- ---------------------------------------- --- --------------- ------------------ ----------------------------- 
24     eltwise_24 (Eltwise, ADD)                                [b:1,h:8,h:8,w:8,c:40]                              2,560                               eltwise_20   |                                    eltwise_integer/sum_oi8[27]   
                                                                                                                                                         conv2d_23   | 
------ -------------------------------------------------------- ----------------------------- --------------- ----------- ---------------------------------------- --- --------------- ------------------ ----------------------------- 
25     conv2d_25 (Conv2D, CONV_2D)                              [b:1,h:8,h:8,w:8,c:120]       4,920/5,280         307,320                               eltwise_24   |                                    conv2d_oi8[28]                
       nl_25_nl (Nonlinearity, CONV_2D)                         [b:1,h:8,h:8,w:8,c:120]                             7,680                                conv2d_25   |                 -7,680(-100.0%)    
------ -------------------------------------------------------- ----------------------------- --------------- ----------- ---------------------------------------- --- --------------- ------------------ ----------------------------- 
26     conv2d_26 (Conv2D, DEPTHWISE_CONV_2D)                    [b:1,h:8,h:8,w:8,c:120]       1,200/1,560          69,240                                 nl_25_nl   |                                    pad_oi8/conv2d_oi8[29, 30]    
       nl_26_nl (Nonlinearity, DEPTHWISE_CONV_2D)               [b:1,h:8,h:8,w:8,c:120]                             7,680                                conv2d_26   |                 -7,680(-100.0%)    
------ -------------------------------------------------------- ----------------------------- --------------- ----------- ---------------------------------------- --- --------------- ------------------ ----------------------------- 
27     conv2d_27 (Conv2D, CONV_2D)                              [b:1,h:8,h:8,w:8,c:48]        5,808/5,952         368,688                                 nl_26_nl   |                                    conv2d_oi8[31]                
------ -------------------------------------------------------- ----------------------------- --------------- ----------- ---------------------------------------- --- --------------- ------------------ ----------------------------- 
28     conv2d_28 (Conv2D, CONV_2D)                              [b:1,h:8,h:8,w:8,c:144]       7,056/7,488         442,512                                conv2d_27   |                                    conv2d_oi8[32]                
       nl_28_nl (Nonlinearity, CONV_2D)                         [b:1,h:8,h:8,w:8,c:144]                             9,216                                conv2d_28   |                 -9,216(-100.0%)    
------ -------------------------------------------------------- ----------------------------- --------------- ----------- ---------------------------------------- --- --------------- ------------------ ----------------------------- 
29     conv2d_29 (Conv2D, DEPTHWISE_CONV_2D)                    [b:1,h:8,h:8,w:8,c:144]       1,440/1,872          83,088                                 nl_28_nl   |                                    pad_oi8/conv2d_oi8[33, 34]    
       nl_29_nl (Nonlinearity, DEPTHWISE_CONV_2D)               [b:1,h:8,h:8,w:8,c:144]                             9,216                                conv2d_29   |                 -9,216(-100.0%)    
------ -------------------------------------------------------- ----------------------------- --------------- ----------- ---------------------------------------- --- --------------- ------------------ ----------------------------- 
30     conv2d_30 (Conv2D, CONV_2D)                              [b:1,h:8,h:8,w:8,c:48]        6,960/7,104         442,416                                 nl_29_nl   |                                    conv2d_oi8[35]                
------ -------------------------------------------------------- ----------------------------- --------------- ----------- ---------------------------------------- --- --------------- ------------------ ----------------------------- 
31     eltwise_31 (Eltwise, ADD)                                [b:1,h:8,h:8,w:8,c:48]                              3,072                                conv2d_27   |                                    eltwise_integer/sum_oi8[36]   
                                                                                                                                                         conv2d_30   | 
------ -------------------------------------------------------- ----------------------------- --------------- ----------- ---------------------------------------- --- --------------- ------------------ ----------------------------- 
32     conv2d_32 (Conv2D, CONV_2D)                              [b:1,h:8,h:8,w:8,c:288]       14,112/14,976       885,024                               eltwise_31   |                                    conv2d_oi8[37]                
       nl_32_nl (Nonlinearity, CONV_2D)                         [b:1,h:8,h:8,w:8,c:288]                            18,432                                conv2d_32   |                 -18,432(-100.0%)   
------ -------------------------------------------------------- ----------------------------- --------------- ----------- ---------------------------------------- --- --------------- ------------------ ----------------------------- 
33     pad_33 (Pad, PAD)                                        [b:1,h:9,h:9,w:9,c:288]                                                                   nl_32_nl   |                                    pad_oi8[38]                   
------ -------------------------------------------------------- ----------------------------- --------------- ----------- ---------------------------------------- --- --------------- ------------------ ----------------------------- 
34     conv2d_34 (Conv2D, DEPTHWISE_CONV_2D)                    [b:1,h:4,h:4,w:4,c:288]       2,880/3,744          41,760                                   pad_33   |                                    conv2d_oi8[39]                
       nl_34_nl (Nonlinearity, DEPTHWISE_CONV_2D)               [b:1,h:4,h:4,w:4,c:288]                             4,608                                conv2d_34   |                 -4,608(-100.0%)    
------ -------------------------------------------------------- ----------------------------- --------------- ----------- ---------------------------------------- --- --------------- ------------------ ----------------------------- 
35     conv2d_35 (Conv2D, CONV_2D)                              [b:1,h:4,h:4,w:4,c:96]        27,744/28,032       442,464                                 nl_34_nl   |                                    conv2d_oi8[40]                
------ -------------------------------------------------------- ----------------------------- --------------- ----------- ---------------------------------------- --- --------------- ------------------ ----------------------------- 
36     conv2d_36 (Conv2D, CONV_2D)                              [b:1,h:4,h:4,w:4,c:576]       55,872/57,600       885,312                                conv2d_35   | -100(-0.2%)     -3,074(-0.3%)      conv2d_oi8[41]                
       nl_36_nl (Nonlinearity, CONV_2D)                         [b:1,h:4,h:4,w:4,c:576]                             9,216                                conv2d_36   |                 -9,216(-100.0%)    
------ -------------------------------------------------------- ----------------------------- --------------- ----------- ---------------------------------------- --- --------------- ------------------ ----------------------------- 
37     conv2d_37 (Conv2D, DEPTHWISE_CONV_2D)                    [b:1,h:4,h:4,w:4,c:576]       5,760/7,488          83,520                                 nl_36_nl   | -12(-0.2%)      -145(-0.2%)        pad_oi8/conv2d_oi8[42, 43]    
       nl_37_nl (Nonlinearity, DEPTHWISE_CONV_2D)               [b:1,h:4,h:4,w:4,c:576]                             9,216                                conv2d_37   |                 -9,216(-100.0%)    
------ -------------------------------------------------------- ----------------------------- --------------- ----------- ---------------------------------------- --- --------------- ------------------ ----------------------------- 
38     conv2d_38 (Conv2D, CONV_2D)                              [b:1,h:4,h:4,w:4,c:96]        55,392/55,680       884,832                                 nl_37_nl   | -96(-0.2%)      -1,536(-0.2%)      conv2d_oi8[44]                
------ -------------------------------------------------------- ----------------------------- --------------- ----------- ---------------------------------------- --- --------------- ------------------ ----------------------------- 
39     eltwise_39 (Eltwise, ADD)                                [b:1,h:4,h:4,w:4,c:96]                              1,536                                conv2d_35   |                                    eltwise_integer/sum_oi8[45]   
                                                                                                                                                         conv2d_38   | 
------ -------------------------------------------------------- ----------------------------- --------------- ----------- ---------------------------------------- --- --------------- ------------------ ----------------------------- 
40     conv2d_40 (Conv2D, CONV_2D)                              [b:1,h:4,h:4,w:4,c:576]       55,872/57,600       885,312                               eltwise_39   |                                    conv2d_oi8[46]                
       nl_40_nl (Nonlinearity, CONV_2D)                         [b:1,h:4,h:4,w:4,c:576]                             9,216                                conv2d_40   |                 -9,216(-100.0%)    
------ -------------------------------------------------------- ----------------------------- --------------- ----------- ---------------------------------------- --- --------------- ------------------ ----------------------------- 
41     conv2d_41 (Conv2D, DEPTHWISE_CONV_2D)                    [b:1,h:4,h:4,w:4,c:576]       5,760/7,488          83,520                                 nl_40_nl   |                                    pad_oi8/conv2d_oi8[47, 48]    
       nl_41_nl (Nonlinearity, DEPTHWISE_CONV_2D)               [b:1,h:4,h:4,w:4,c:576]                             9,216                                conv2d_41   |                 -9,216(-100.0%)    
------ -------------------------------------------------------- ----------------------------- --------------- ----------- ---------------------------------------- --- --------------- ------------------ ----------------------------- 
42     conv2d_42 (Conv2D, CONV_2D)                              [b:1,h:4,h:4,w:4,c:96]        55,392/55,680       884,832                                 nl_41_nl   |                                    conv2d_oi8[49]                
------ -------------------------------------------------------- ----------------------------- --------------- ----------- ---------------------------------------- --- --------------- ------------------ ----------------------------- 
43     eltwise_43 (Eltwise, ADD)                                [b:1,h:4,h:4,w:4,c:96]                              1,536                               eltwise_39   |                                    eltwise_integer/sum_oi8[50]   
                                                                                                                                                         conv2d_42   | 
------ -------------------------------------------------------- ----------------------------- --------------- ----------- ---------------------------------------- --- --------------- ------------------ ----------------------------- 
44     conv2d_44 (Conv2D, CONV_2D)                              [b:1,h:4,h:4,w:4,c:576]       55,872/57,600       885,312                               eltwise_43   |                                    conv2d_oi8[51]                
       nl_44_nl (Nonlinearity, CONV_2D)                         [b:1,h:4,h:4,w:4,c:576]                             9,216                                conv2d_44   |                 -9,216(-100.0%)    
------ -------------------------------------------------------- ----------------------------- --------------- ----------- ---------------------------------------- --- --------------- ------------------ ----------------------------- 
45     pool_45 (Pool, MEAN)                                     [b:1,h:1,h:1,w:1,c:576]                             9,216                                 nl_44_nl   |                                    pool_oi8[52]                  
       reshape_45_reshape (Reshape, MEAN)                       [b:1,c:576]                                                                                pool_45   |                                    
------ -------------------------------------------------------- ----------------------------- --------------- ----------- ---------------------------------------- --- --------------- ------------------ ----------------------------- 
46     model_2_dense_2_MatMul (Placeholder, )                   [h:26,h:26,c:576]             14,976/14,976                                                          | +104(+0.7%)     +15,002(+100.0%)   dense_oi8[53]                 
       model_2_dense_2_BiasAdd_ReadVariableOp (Placeholder, )   [c:26]                        26/104                                                                 | -104(-100.0%)                      
       gemm_46 (Gemm, FULLY_CONNECTED)                          [b:1,c:26]                                         15,002                       reshape_45_reshape   |                 -15,002(-100.0%)   
                                                                                                                                            model_2_dense_2_MatMul   | 
                                                                                                                            model_2_dense_2_BiasAdd_ReadVariableOp   | 
------ -------------------------------------------------------- ----------------------------- --------------- ----------- ---------------------------------------- --- --------------- ------------------ ----------------------------- 
47     nl_47 (Nonlinearity, SOFTMAX)                            [b:1,c:26]                                            390                                  gemm_46   |                                    nl_oi8[54]                    
------ -------------------------------------------------------- ----------------------------- --------------- ----------- ---------------------------------------- --- --------------- ------------------ ----------------------------- 
48     conversion_48 (Conversion, QUANTIZE)                     [b:1,c:26]                                             52                                    nl_47   |                                    converter_ou8[o][55]          
------ -------------------------------------------------------- ----------------------------- --------------- ----------- ---------------------------------------- --- --------------- ------------------ ----------------------------- 
model/c-model: macc=17,107,452/16,680,230 -427,222(-2.5%) weights=456,080/455,776 -304(-0.1%) activations=--/82,648 io=--/0



Generated C-graph summary
------------------------------------------------------------------------------------------------------------------------
model name            : model_quant_v3
c-name                : mnv1
c-node #              : 56
c-array #             : 163
activations size      : 82648 (1 segment)
weights size          : 455776 (1 segment)
macc                  : 16680230
inputs                : ['serving_default_input_80_output']
outputs               : ['conversion_48_output']

C-Arrays (163)
------ --------------------------------- ------------- ------------------------- --------------- -------------- --------- 
c_id   name (*_array)                    item/size     domain/mem-pool           c-type          fmt            comment   
------ --------------------------------- ------------- ------------------------- --------------- -------------- --------- 
0      conv2d_10_scratch0                3257/3257     activations/**default**   int8_t          s8                       
1      conv2d_11_scratch0                592/592       activations/**default**   int8_t          s8                       
2      conv2d_13_scratch0                1056/1056     activations/**default**   int8_t          s8                       
3      conv2d_15_scratch0                3553/3553     activations/**default**   int8_t          s8                       
4      conv2d_16_scratch0                784/784       activations/**default**   int8_t          s8                       
5      conv2d_17_scratch0                2550/2550     activations/**default**   int8_t          s8                       
6      conv2d_18_scratch0                8844/8844     activations/**default**   int8_t          s8                       
7      conv2d_19_scratch0                1356/1356     activations/**default**   int8_t          s8                       
8      conv2d_21_scratch0                2560/2560     activations/**default**   int8_t          s8                       
9      conv2d_22_scratch0                8881/8881     activations/**default**   int8_t          s8                       
10     conv2d_23_scratch0                1360/1360     activations/**default**   int8_t          s8                       
11     conv2d_25_scratch0                1360/1360     activations/**default**   int8_t          s8                       
12     conv2d_26_scratch0                4441/4441     activations/**default**   int8_t          s8                       
13     conv2d_27_scratch0                960/960       activations/**default**   int8_t          s8                       
14     conv2d_28_scratch0                1632/1632     activations/**default**   int8_t          s8                       
15     conv2d_29_scratch0                5329/5329     activations/**default**   int8_t          s8                       
16     conv2d_30_scratch0                1056/1056     activations/**default**   int8_t          s8                       
17     conv2d_32_scratch0                3072/3072     activations/**default**   int8_t          s8                       
18     conv2d_34_scratch0                10657/10657   activations/**default**   int8_t          s8                       
19     conv2d_35_scratch0                2112/2112     activations/**default**   int8_t          s8                       
20     conv2d_36_scratch0                6134/6134     activations/**default**   int8_t          s8                       
21     conv2d_37_scratch0                21276/21276   activations/**default**   int8_t          s8                       
22     conv2d_38_scratch0                3260/3260     activations/**default**   int8_t          s8                       
23     conv2d_40_scratch0                6144/6144     activations/**default**   int8_t          s8                       
24     serving_default_input_80_output   49152/49152   activations/**default**   uint8_t         ua8            /input    
25     conv2d_41_scratch0                21313/21313   activations/**default**   int8_t          s8                       
26     conversion_0_output               49152/49153   activations/**default**   int8_t          sa8                      
27     conv2d_1_output                   65536/65536   activations/**default**   int8_t          sa8                      
28     conv2d_3_pad_before_output        67600/67600   activations/**default**   int8_t          sa8                      
29     conv2d_42_scratch0                3264/3264     activations/**default**   int8_t          s8                       
30     conv2d_3_output                   16384/16384   activations/**default**   int8_t          sa8                      
31     conv2d_4_output                   16384/16384   activations/**default**   int8_t          sa8                      
32     conv2d_5_output                   73728/73728   activations/**default**   int8_t          sa8                      
33     conv2d_44_scratch0                6144/6144     activations/**default**   int8_t          s8                       
34     conv2d_7_pad_before_output        78408/78408   activations/**default**   int8_t          sa8                      
35     conv2d_7_output                   18432/18432   activations/**default**   int8_t          sa8                      
36     conv2d_8_output                   6144/6144     activations/**default**   int8_t          sa8                      
37     gemm_46_scratch0                  576/1152      activations/**default**   int16_t         s16                      
38     conv2d_9_output                   22528/22528   activations/**default**   int8_t          sa8                      
39     conv2d_10_pad_before_output       28512/28512   activations/**default**   int8_t          sa8                      
40     conv2d_10_output                  22528/22528   activations/**default**   int8_t          sa8                      
41     nl_47_scratch0                    26/104        activations/**default**   int32_t         s32                      
42     conv2d_11_output                  6144/6144     activations/**default**   int8_t          sa8                      
43     eltwise_12_output                 6144/6144     activations/**default**   int8_t          sa8                      
44     conv2d_13_output                  24576/24576   activations/**default**   int8_t          sa8                      
45     conv2d_15_pad_before_output       27744/27744   activations/**default**   int8_t          sa8                      
46     conv2d_15_output                  6144/6144     activations/**default**   int8_t          sa8                      
47     conv2d_16_output                  2560/2560     activations/**default**   int8_t          sa8                      
48     conv2d_17_output                  15296/15296   activations/**default**   int8_t          sa8                      
49     conv2d_18_pad_before_output       23900/23900   activations/**default**   int8_t          sa8                      
50     conv2d_18_output                  15296/15296   activations/**default**   int8_t          sa8                      
51     conv2d_19_output                  2560/2560     activations/**default**   int8_t          sa8                      
52     eltwise_20_output                 2560/2560     activations/**default**   int8_t          sa8                      
53     conv2d_21_output                  15360/15360   activations/**default**   int8_t          sa8                      
54     conv2d_22_pad_before_output       24000/24000   activations/**default**   int8_t          sa8                      
55     conv2d_22_output                  15360/15360   activations/**default**   int8_t          sa8                      
56     conv2d_23_output                  2560/2560     activations/**default**   int8_t          sa8                      
57     eltwise_24_output                 2560/2560     activations/**default**   int8_t          sa8                      
58     conv2d_25_output                  7680/7680     activations/**default**   int8_t          sa8                      
59     conv2d_26_pad_before_output       12000/12000   activations/**default**   int8_t          sa8                      
60     conv2d_26_output                  7680/7680     activations/**default**   int8_t          sa8                      
61     conv2d_27_output                  3072/3072     activations/**default**   int8_t          sa8                      
62     conv2d_28_output                  9216/9216     activations/**default**   int8_t          sa8                      
63     conv2d_29_pad_before_output       14400/14400   activations/**default**   int8_t          sa8                      
64     conv2d_29_output                  9216/9216     activations/**default**   int8_t          sa8                      
65     conv2d_30_output                  3072/3072     activations/**default**   int8_t          sa8                      
66     eltwise_31_output                 3072/3072     activations/**default**   int8_t          sa8                      
67     conv2d_32_output                  18432/18432   activations/**default**   int8_t          sa8                      
68     conv2d_34_pad_before_output       23328/23328   activations/**default**   int8_t          sa8                      
69     conv2d_34_output                  4608/4608     activations/**default**   int8_t          sa8                      
70     conv2d_35_output                  1536/1536     activations/**default**   int8_t          sa8                      
71     conv2d_36_output                  9200/9200     activations/**default**   int8_t          sa8                      
72     conv2d_37_pad_before_output       20700/20700   activations/**default**   int8_t          sa8                      
73     conv2d_37_output                  9200/9200     activations/**default**   int8_t          sa8                      
74     conv2d_38_output                  1536/1536     activations/**default**   int8_t          ss8                      
75     eltwise_39_output                 1536/1536     activations/**default**   int8_t          ss8                      
76     conv2d_40_output                  9216/9216     activations/**default**   int8_t          sa8                      
77     conv2d_41_pad_before_output       20736/20736   activations/**default**   int8_t          sa8                      
78     conv2d_41_output                  9216/9216     activations/**default**   int8_t          sa8                      
79     conv2d_42_output                  1536/1536     activations/**default**   int8_t          sa8                      
80     eltwise_43_output                 1536/1536     activations/**default**   int8_t          sa8                      
81     conv2d_44_output                  9216/9216     activations/**default**   int8_t          sa8                      
82     pool_45_output                    576/576       activations/**default**   int8_t          sa8                      
83     gemm_46_output                    26/26         activations/**default**   int8_t          sa8                      
84     nl_47_output                      26/26         activations/**default**   int8_t          sa8                      
85     conversion_48_output              26/26         activations/**default**   uint8_t         ua8            /output   
86     conv2d_1_weights                  432/432       weights/weights           const int8_t    ss8/ch(16)               
87     conv2d_1_bias                     16/64         weights/weights           const int32_t   ss32/ch(16)              
88     conv2d_3_weights                  144/144       weights/weights           const int8_t    ss8/ch(16)               
89     conv2d_3_bias                     16/64         weights/weights           const int32_t   ss32/ch(16)              
90     conv2d_4_weights                  256/256       weights/weights           const int8_t    ss8/ch(16)               
91     conv2d_4_bias                     16/64         weights/weights           const int32_t   ss32/ch(16)              
92     conv2d_5_weights                  1152/1152     weights/weights           const int8_t    ss8/ch(72)               
93     conv2d_5_bias                     72/288        weights/weights           const int32_t   ss32/ch(72)              
94     conv2d_7_weights                  648/648       weights/weights           const int8_t    ss8/ch(72)               
95     conv2d_7_bias                     72/288        weights/weights           const int32_t   ss32/ch(72)              
96     conv2d_8_weights                  1728/1728     weights/weights           const int8_t    ss8/ch(24)               
97     conv2d_8_bias                     24/96         weights/weights           const int32_t   ss32/ch(24)              
98     conv2d_9_weights                  2112/2112     weights/weights           const int8_t    ss8/ch(88)               
99     conv2d_9_bias                     88/352        weights/weights           const int32_t   ss32/ch(88)              
100    conv2d_10_weights                 792/792       weights/weights           const int8_t    ss8/ch(88)               
101    conv2d_10_bias                    88/352        weights/weights           const int32_t   ss32/ch(88)              
102    conv2d_11_weights                 2112/2112     weights/weights           const int8_t    ss8/ch(24)               
103    conv2d_11_bias                    24/96         weights/weights           const int32_t   ss32/ch(24)              
104    conv2d_13_weights                 2304/2304     weights/weights           const int8_t    ss8/ch(96)               
105    conv2d_13_bias                    96/384        weights/weights           const int32_t   ss32/ch(96)              
106    conv2d_15_weights                 864/864       weights/weights           const int8_t    ss8/ch(96)               
107    conv2d_15_bias                    96/384        weights/weights           const int32_t   ss32/ch(96)              
108    conv2d_16_weights                 3840/3840     weights/weights           const int8_t    ss8/ch(40)               
109    conv2d_16_bias                    40/160        weights/weights           const int32_t   ss32/ch(40)              
110    conv2d_17_weights                 9560/9560     weights/weights           const int8_t    ss8/ch(239)              
111    conv2d_17_bias                    239/956       weights/weights           const int32_t   ss32/ch(239)             
112    conv2d_18_weights                 2151/2152     weights/weights           const int8_t    ss8/ch(239)              
113    conv2d_18_bias                    239/956       weights/weights           const int32_t   ss32/ch(239)             
114    conv2d_19_weights                 9560/9560     weights/weights           const int8_t    ss8/ch(40)               
115    conv2d_19_bias                    40/160        weights/weights           const int32_t   ss32/ch(40)              
116    conv2d_21_weights                 9600/9600     weights/weights           const int8_t    ss8/ch(240)              
117    conv2d_21_bias                    240/960       weights/weights           const int32_t   ss32/ch(240)             
118    conv2d_22_weights                 2160/2160     weights/weights           const int8_t    ss8/ch(240)              
119    conv2d_22_bias                    240/960       weights/weights           const int32_t   ss32/ch(240)             
120    conv2d_23_weights                 9600/9600     weights/weights           const int8_t    ss8/ch(40)               
121    conv2d_23_bias                    40/160        weights/weights           const int32_t   ss32/ch(40)              
122    conv2d_25_weights                 4800/4800     weights/weights           const int8_t    ss8/ch(120)              
123    conv2d_25_bias                    120/480       weights/weights           const int32_t   ss32/ch(120)             
124    conv2d_26_weights                 1080/1080     weights/weights           const int8_t    ss8/ch(120)              
125    conv2d_26_bias                    120/480       weights/weights           const int32_t   ss32/ch(120)             
126    conv2d_27_weights                 5760/5760     weights/weights           const int8_t    ss8/ch(48)               
127    conv2d_27_bias                    48/192        weights/weights           const int32_t   ss32/ch(48)              
128    conv2d_28_weights                 6912/6912     weights/weights           const int8_t    ss8/ch(144)              
129    conv2d_28_bias                    144/576       weights/weights           const int32_t   ss32/ch(144)             
130    conv2d_29_weights                 1296/1296     weights/weights           const int8_t    ss8/ch(144)              
131    conv2d_29_bias                    144/576       weights/weights           const int32_t   ss32/ch(144)             
132    conv2d_30_weights                 6912/6912     weights/weights           const int8_t    ss8/ch(48)               
133    conv2d_30_bias                    48/192        weights/weights           const int32_t   ss32/ch(48)              
134    conv2d_32_weights                 13824/13824   weights/weights           const int8_t    ss8/ch(288)              
135    conv2d_32_bias                    288/1152      weights/weights           const int32_t   ss32/ch(288)             
136    conv2d_34_weights                 2592/2592     weights/weights           const int8_t    ss8/ch(288)              
137    conv2d_34_bias                    288/1152      weights/weights           const int32_t   ss32/ch(288)             
138    conv2d_35_weights                 27648/27648   weights/weights           const int8_t    ss8/ch(96)               
139    conv2d_35_bias                    96/384        weights/weights           const int32_t   ss32/ch(96)              
140    conv2d_36_weights                 55200/55200   weights/weights           const int8_t    ss8/ch(575)              
141    conv2d_36_bias                    575/2300      weights/weights           const int32_t   ss32/ch(575)             
142    conv2d_37_weights                 5175/5176     weights/weights           const int8_t    ss8/ch(575)              
143    conv2d_37_bias                    575/2300      weights/weights           const int32_t   ss32/ch(575)             
144    conv2d_38_weights                 55200/55200   weights/weights           const int8_t    ss8/ch(96)               
145    conv2d_38_bias                    96/384        weights/weights           const int32_t   ss32/ch(96)              
146    conv2d_40_weights                 55296/55296   weights/weights           const int8_t    ss8/ch(576)              
147    conv2d_40_bias                    576/2304      weights/weights           const int32_t   ss32/ch(576)             
148    conv2d_41_weights                 5184/5184     weights/weights           const int8_t    ss8/ch(576)              
149    conv2d_41_bias                    576/2304      weights/weights           const int32_t   ss32/ch(576)             
150    conv2d_42_weights                 55296/55296   weights/weights           const int8_t    ss8/ch(96)               
151    conv2d_42_bias                    96/384        weights/weights           const int32_t   ss32/ch(96)              
152    conv2d_44_weights                 55296/55296   weights/weights           const int8_t    ss8/ch(576)              
153    conv2d_44_bias                    576/2304      weights/weights           const int32_t   ss32/ch(576)             
154    gemm_46_weights                   14976/14976   weights/weights           const int8_t    ss8                      
155    gemm_46_bias                      26/104        weights/weights           const int32_t   ss32                     
156    conv2d_1_scratch0                 1196/1196     activations/**default**   int8_t          s8                       
157    conv2d_3_scratch0                 593/593       activations/**default**   int8_t          s8                       
158    conv2d_4_scratch0                 224/224       activations/**default**   int8_t          s8                       
159    conv2d_5_scratch0                 784/784       activations/**default**   int8_t          s8                       
160    conv2d_7_scratch0                 2665/2665     activations/**default**   int8_t          s8                       
161    conv2d_8_scratch0                 528/528       activations/**default**   int8_t          s8                       
162    conv2d_9_scratch0                 976/976       activations/**default**   int8_t          s8                       
------ --------------------------------- ------------- ------------------------- --------------- -------------- --------- 

C-Layers (56)
------ ---------------------- ---- ---------------------- --------- ------- ------------------------------------ -------------------- 
c_id   name (*_layer)         id   layer_type             macc      rom     tensors                              shape (array id)     
------ ---------------------- ---- ---------------------- --------- ------- ------------------------------------ -------------------- 
0      conversion_0           0    converter              98304     0       I: serving_default_input_80_output   (1,128,128,3) (24)   
                                                                            O: conversion_0_output               (1,128,128,3) (26)   
------ ---------------------- ---- ---------------------- --------- ------- ------------------------------------ -------------------- 
1      conv2d_1               1    optimized_conv2d       1769488   496     I: conversion_0_output               (1,128,128,3) (26)   
                                                                            S: conv2d_1_scratch0                                      
                                                                            W: conv2d_1_weights                  (3,3,3,16) (86)      
                                                                            W: conv2d_1_bias                     (16,) (87)           
                                                                            O: conv2d_1_output                   (1,64,64,16) (27)    
------ ---------------------- ---- ---------------------- --------- ------- ------------------------------------ -------------------- 
2      conv2d_3_pad_before    2    pad                    0         0       I: conv2d_1_output                   (1,64,64,16) (27)    
                                                                            O: conv2d_3_pad_before_output        (1,65,65,16) (28)    
------ ---------------------- ---- ---------------------- --------- ------- ------------------------------------ -------------------- 
3      conv2d_3               3    conv2d                 147472    208     I: conv2d_3_pad_before_output        (1,65,65,16) (28)    
                                                                            S: conv2d_3_scratch0                                      
                                                                            W: conv2d_3_weights                  (16,3,3,1) (88)      
                                                                            W: conv2d_3_bias                     (16,) (89)           
                                                                            O: conv2d_3_output                   (1,32,32,16) (30)    
------ ---------------------- ---- ---------------------- --------- ------- ------------------------------------ -------------------- 
4      conv2d_4               4    conv2d                 262160    320     I: conv2d_3_output                   (1,32,32,16) (30)    
                                                                            S: conv2d_4_scratch0                                      
                                                                            W: conv2d_4_weights                  (16,1,1,16) (90)     
                                                                            W: conv2d_4_bias                     (16,) (91)           
                                                                            O: conv2d_4_output                   (1,32,32,16) (31)    
------ ---------------------- ---- ---------------------- --------- ------- ------------------------------------ -------------------- 
5      conv2d_5               5    conv2d                 1179720   1440    I: conv2d_4_output                   (1,32,32,16) (31)    
                                                                            S: conv2d_5_scratch0                                      
                                                                            W: conv2d_5_weights                  (16,1,1,72) (92)     
                                                                            W: conv2d_5_bias                     (72,) (93)           
                                                                            O: conv2d_5_output                   (1,32,32,72) (32)    
------ ---------------------- ---- ---------------------- --------- ------- ------------------------------------ -------------------- 
6      conv2d_7_pad_before    6    pad                    0         0       I: conv2d_5_output                   (1,32,32,72) (32)    
                                                                            O: conv2d_7_pad_before_output        (1,33,33,72) (34)    
------ ---------------------- ---- ---------------------- --------- ------- ------------------------------------ -------------------- 
7      conv2d_7               7    conv2d                 165960    936     I: conv2d_7_pad_before_output        (1,33,33,72) (34)    
                                                                            S: conv2d_7_scratch0                                      
                                                                            W: conv2d_7_weights                  (72,3,3,1) (94)      
                                                                            W: conv2d_7_bias                     (72,) (95)           
                                                                            O: conv2d_7_output                   (1,16,16,72) (35)    
------ ---------------------- ---- ---------------------- --------- ------- ------------------------------------ -------------------- 
8      conv2d_8               8    conv2d                 442392    1824    I: conv2d_7_output                   (1,16,16,72) (35)    
                                                                            S: conv2d_8_scratch0                                      
                                                                            W: conv2d_8_weights                  (72,1,1,24) (96)     
                                                                            W: conv2d_8_bias                     (24,) (97)           
                                                                            O: conv2d_8_output                   (1,16,16,24) (36)    
------ ---------------------- ---- ---------------------- --------- ------- ------------------------------------ -------------------- 
9      conv2d_9               9    conv2d                 540760    2464    I: conv2d_8_output                   (1,16,16,24) (36)    
                                                                            S: conv2d_9_scratch0                                      
                                                                            W: conv2d_9_weights                  (24,1,1,88) (98)     
                                                                            W: conv2d_9_bias                     (88,) (99)           
                                                                            O: conv2d_9_output                   (1,16,16,88) (38)    
------ ---------------------- ---- ---------------------- --------- ------- ------------------------------------ -------------------- 
10     conv2d_10_pad_before   10   pad                    0         0       I: conv2d_9_output                   (1,16,16,88) (38)    
                                                                            O: conv2d_10_pad_before_output       (1,18,18,88) (39)    
------ ---------------------- ---- ---------------------- --------- ------- ------------------------------------ -------------------- 
11     conv2d_10              10   conv2d                 202840    1144    I: conv2d_10_pad_before_output       (1,18,18,88) (39)    
                                                                            S: conv2d_10_scratch0                                     
                                                                            W: conv2d_10_weights                 (88,3,3,1) (100)     
                                                                            W: conv2d_10_bias                    (88,) (101)          
                                                                            O: conv2d_10_output                  (1,16,16,88) (40)    
------ ---------------------- ---- ---------------------- --------- ------- ------------------------------------ -------------------- 
12     conv2d_11              11   conv2d                 540696    2208    I: conv2d_10_output                  (1,16,16,88) (40)    
                                                                            S: conv2d_11_scratch0                                     
                                                                            W: conv2d_11_weights                 (88,1,1,24) (102)    
                                                                            W: conv2d_11_bias                    (24,) (103)          
                                                                            O: conv2d_11_output                  (1,16,16,24) (42)    
------ ---------------------- ---- ---------------------- --------- ------- ------------------------------------ -------------------- 
13     eltwise_12             12   eltwise_integer/sum    6144      0       I: conv2d_8_output                   (1,16,16,24) (36)    
                                                                            I: conv2d_11_output                  (1,16,16,24) (42)    
                                                                            O: eltwise_12_output                 (1,16,16,24) (43)    
------ ---------------------- ---- ---------------------- --------- ------- ------------------------------------ -------------------- 
14     conv2d_13              13   conv2d                 589920    2688    I: eltwise_12_output                 (1,16,16,24) (43)    
                                                                            S: conv2d_13_scratch0                                     
                                                                            W: conv2d_13_weights                 (24,1,1,96) (104)    
                                                                            W: conv2d_13_bias                    (96,) (105)          
                                                                            O: conv2d_13_output                  (1,16,16,96) (44)    
------ ---------------------- ---- ---------------------- --------- ------- ------------------------------------ -------------------- 
15     conv2d_15_pad_before   14   pad                    0         0       I: conv2d_13_output                  (1,16,16,96) (44)    
                                                                            O: conv2d_15_pad_before_output       (1,17,17,96) (45)    
------ ---------------------- ---- ---------------------- --------- ------- ------------------------------------ -------------------- 
16     conv2d_15              15   conv2d                 55392     1248    I: conv2d_15_pad_before_output       (1,17,17,96) (45)    
                                                                            S: conv2d_15_scratch0                                     
                                                                            W: conv2d_15_weights                 (96,3,3,1) (106)     
                                                                            W: conv2d_15_bias                    (96,) (107)          
                                                                            O: conv2d_15_output                  (1,8,8,96) (46)      
------ ---------------------- ---- ---------------------- --------- ------- ------------------------------------ -------------------- 
17     conv2d_16              16   conv2d                 245800    4000    I: conv2d_15_output                  (1,8,8,96) (46)      
                                                                            S: conv2d_16_scratch0                                     
                                                                            W: conv2d_16_weights                 (96,1,1,40) (108)    
                                                                            W: conv2d_16_bias                    (40,) (109)          
                                                                            O: conv2d_16_output                  (1,8,8,40) (47)      
------ ---------------------- ---- ---------------------- --------- ------- ------------------------------------ -------------------- 
18     conv2d_17              17   conv2d                 609518    10516   I: conv2d_16_output                  (1,8,8,40) (47)      
                                                                            S: conv2d_17_scratch0                                     
                                                                            W: conv2d_17_weights                 (40,1,1,239) (110)   
                                                                            W: conv2d_17_bias                    (239,) (111)         
                                                                            O: conv2d_17_output                  (1,8,8,239) (48)     
------ ---------------------- ---- ---------------------- --------- ------- ------------------------------------ -------------------- 
19     conv2d_18_pad_before   18   pad                    0         0       I: conv2d_17_output                  (1,8,8,239) (48)     
                                                                            O: conv2d_18_pad_before_output       (1,10,10,239) (49)   
------ ---------------------- ---- ---------------------- --------- ------- ------------------------------------ -------------------- 
20     conv2d_18              18   conv2d                 137903    3108    I: conv2d_18_pad_before_output       (1,10,10,239) (49)   
                                                                            S: conv2d_18_scratch0                                     
                                                                            W: conv2d_18_weights                 (239,3,3,1) (112)    
                                                                            W: conv2d_18_bias                    (239,) (113)         
                                                                            O: conv2d_18_output                  (1,8,8,239) (50)     
------ ---------------------- ---- ---------------------- --------- ------- ------------------------------------ -------------------- 
21     conv2d_19              19   conv2d                 611880    9720    I: conv2d_18_output                  (1,8,8,239) (50)     
                                                                            S: conv2d_19_scratch0                                     
                                                                            W: conv2d_19_weights                 (239,1,1,40) (114)   
                                                                            W: conv2d_19_bias                    (40,) (115)          
                                                                            O: conv2d_19_output                  (1,8,8,40) (51)      
------ ---------------------- ---- ---------------------- --------- ------- ------------------------------------ -------------------- 
22     eltwise_20             20   eltwise_integer/sum    2560      0       I: conv2d_16_output                  (1,8,8,40) (47)      
                                                                            I: conv2d_19_output                  (1,8,8,40) (51)      
                                                                            O: eltwise_20_output                 (1,8,8,40) (52)      
------ ---------------------- ---- ---------------------- --------- ------- ------------------------------------ -------------------- 
23     conv2d_21              21   conv2d                 614640    10560   I: eltwise_20_output                 (1,8,8,40) (52)      
                                                                            S: conv2d_21_scratch0                                     
                                                                            W: conv2d_21_weights                 (40,1,1,240) (116)   
                                                                            W: conv2d_21_bias                    (240,) (117)         
                                                                            O: conv2d_21_output                  (1,8,8,240) (53)     
------ ---------------------- ---- ---------------------- --------- ------- ------------------------------------ -------------------- 
24     conv2d_22_pad_before   22   pad                    0         0       I: conv2d_21_output                  (1,8,8,240) (53)     
                                                                            O: conv2d_22_pad_before_output       (1,10,10,240) (54)   
------ ---------------------- ---- ---------------------- --------- ------- ------------------------------------ -------------------- 
25     conv2d_22              22   conv2d                 138480    3120    I: conv2d_22_pad_before_output       (1,10,10,240) (54)   
                                                                            S: conv2d_22_scratch0                                     
                                                                            W: conv2d_22_weights                 (240,3,3,1) (118)    
                                                                            W: conv2d_22_bias                    (240,) (119)         
                                                                            O: conv2d_22_output                  (1,8,8,240) (55)     
------ ---------------------- ---- ---------------------- --------- ------- ------------------------------------ -------------------- 
26     conv2d_23              23   conv2d                 614440    9760    I: conv2d_22_output                  (1,8,8,240) (55)     
                                                                            S: conv2d_23_scratch0                                     
                                                                            W: conv2d_23_weights                 (240,1,1,40) (120)   
                                                                            W: conv2d_23_bias                    (40,) (121)          
                                                                            O: conv2d_23_output                  (1,8,8,40) (56)      
------ ---------------------- ---- ---------------------- --------- ------- ------------------------------------ -------------------- 
27     eltwise_24             24   eltwise_integer/sum    2560      0       I: eltwise_20_output                 (1,8,8,40) (52)      
                                                                            I: conv2d_23_output                  (1,8,8,40) (56)      
                                                                            O: eltwise_24_output                 (1,8,8,40) (57)      
------ ---------------------- ---- ---------------------- --------- ------- ------------------------------------ -------------------- 
28     conv2d_25              25   conv2d                 307320    5280    I: eltwise_24_output                 (1,8,8,40) (57)      
                                                                            S: conv2d_25_scratch0                                     
                                                                            W: conv2d_25_weights                 (40,1,1,120) (122)   
                                                                            W: conv2d_25_bias                    (120,) (123)         
                                                                            O: conv2d_25_output                  (1,8,8,120) (58)     
------ ---------------------- ---- ---------------------- --------- ------- ------------------------------------ -------------------- 
29     conv2d_26_pad_before   26   pad                    0         0       I: conv2d_25_output                  (1,8,8,120) (58)     
                                                                            O: conv2d_26_pad_before_output       (1,10,10,120) (59)   
------ ---------------------- ---- ---------------------- --------- ------- ------------------------------------ -------------------- 
30     conv2d_26              26   conv2d                 69240     1560    I: conv2d_26_pad_before_output       (1,10,10,120) (59)   
                                                                            S: conv2d_26_scratch0                                     
                                                                            W: conv2d_26_weights                 (120,3,3,1) (124)    
                                                                            W: conv2d_26_bias                    (120,) (125)         
                                                                            O: conv2d_26_output                  (1,8,8,120) (60)     
------ ---------------------- ---- ---------------------- --------- ------- ------------------------------------ -------------------- 
31     conv2d_27              27   conv2d                 368688    5952    I: conv2d_26_output                  (1,8,8,120) (60)     
                                                                            S: conv2d_27_scratch0                                     
                                                                            W: conv2d_27_weights                 (120,1,1,48) (126)   
                                                                            W: conv2d_27_bias                    (48,) (127)          
                                                                            O: conv2d_27_output                  (1,8,8,48) (61)      
------ ---------------------- ---- ---------------------- --------- ------- ------------------------------------ -------------------- 
32     conv2d_28              28   conv2d                 442512    7488    I: conv2d_27_output                  (1,8,8,48) (61)      
                                                                            S: conv2d_28_scratch0                                     
                                                                            W: conv2d_28_weights                 (48,1,1,144) (128)   
                                                                            W: conv2d_28_bias                    (144,) (129)         
                                                                            O: conv2d_28_output                  (1,8,8,144) (62)     
------ ---------------------- ---- ---------------------- --------- ------- ------------------------------------ -------------------- 
33     conv2d_29_pad_before   29   pad                    0         0       I: conv2d_28_output                  (1,8,8,144) (62)     
                                                                            O: conv2d_29_pad_before_output       (1,10,10,144) (63)   
------ ---------------------- ---- ---------------------- --------- ------- ------------------------------------ -------------------- 
34     conv2d_29              29   conv2d                 83088     1872    I: conv2d_29_pad_before_output       (1,10,10,144) (63)   
                                                                            S: conv2d_29_scratch0                                     
                                                                            W: conv2d_29_weights                 (144,3,3,1) (130)    
                                                                            W: conv2d_29_bias                    (144,) (131)         
                                                                            O: conv2d_29_output                  (1,8,8,144) (64)     
------ ---------------------- ---- ---------------------- --------- ------- ------------------------------------ -------------------- 
35     conv2d_30              30   conv2d                 442416    7104    I: conv2d_29_output                  (1,8,8,144) (64)     
                                                                            S: conv2d_30_scratch0                                     
                                                                            W: conv2d_30_weights                 (144,1,1,48) (132)   
                                                                            W: conv2d_30_bias                    (48,) (133)          
                                                                            O: conv2d_30_output                  (1,8,8,48) (65)      
------ ---------------------- ---- ---------------------- --------- ------- ------------------------------------ -------------------- 
36     eltwise_31             31   eltwise_integer/sum    3072      0       I: conv2d_27_output                  (1,8,8,48) (61)      
                                                                            I: conv2d_30_output                  (1,8,8,48) (65)      
                                                                            O: eltwise_31_output                 (1,8,8,48) (66)      
------ ---------------------- ---- ---------------------- --------- ------- ------------------------------------ -------------------- 
37     conv2d_32              32   conv2d                 885024    14976   I: eltwise_31_output                 (1,8,8,48) (66)      
                                                                            S: conv2d_32_scratch0                                     
                                                                            W: conv2d_32_weights                 (48,1,1,288) (134)   
                                                                            W: conv2d_32_bias                    (288,) (135)         
                                                                            O: conv2d_32_output                  (1,8,8,288) (67)     
------ ---------------------- ---- ---------------------- --------- ------- ------------------------------------ -------------------- 
38     conv2d_34_pad_before   33   pad                    0         0       I: conv2d_32_output                  (1,8,8,288) (67)     
                                                                            O: conv2d_34_pad_before_output       (1,9,9,288) (68)     
------ ---------------------- ---- ---------------------- --------- ------- ------------------------------------ -------------------- 
39     conv2d_34              34   conv2d                 41760     3744    I: conv2d_34_pad_before_output       (1,9,9,288) (68)     
                                                                            S: conv2d_34_scratch0                                     
                                                                            W: conv2d_34_weights                 (288,3,3,1) (136)    
                                                                            W: conv2d_34_bias                    (288,) (137)         
                                                                            O: conv2d_34_output                  (1,4,4,288) (69)     
------ ---------------------- ---- ---------------------- --------- ------- ------------------------------------ -------------------- 
40     conv2d_35              35   conv2d                 442464    28032   I: conv2d_34_output                  (1,4,4,288) (69)     
                                                                            S: conv2d_35_scratch0                                     
                                                                            W: conv2d_35_weights                 (288,1,1,96) (138)   
                                                                            W: conv2d_35_bias                    (96,) (139)          
                                                                            O: conv2d_35_output                  (1,4,4,96) (70)      
------ ---------------------- ---- ---------------------- --------- ------- ------------------------------------ -------------------- 
41     conv2d_36              36   conv2d                 882238    57500   I: conv2d_35_output                  (1,4,4,96) (70)      
                                                                            S: conv2d_36_scratch0                                     
                                                                            W: conv2d_36_weights                 (96,1,1,575) (140)   
                                                                            W: conv2d_36_bias                    (575,) (141)         
                                                                            O: conv2d_36_output                  (1,4,4,575) (71)     
------ ---------------------- ---- ---------------------- --------- ------- ------------------------------------ -------------------- 
42     conv2d_37_pad_before   37   pad                    0         0       I: conv2d_36_output                  (1,4,4,575) (71)     
                                                                            O: conv2d_37_pad_before_output       (1,6,6,575) (72)     
------ ---------------------- ---- ---------------------- --------- ------- ------------------------------------ -------------------- 
43     conv2d_37              37   conv2d                 83375     7476    I: conv2d_37_pad_before_output       (1,6,6,575) (72)     
                                                                            S: conv2d_37_scratch0                                     
                                                                            W: conv2d_37_weights                 (575,3,3,1) (142)    
                                                                            W: conv2d_37_bias                    (575,) (143)         
                                                                            O: conv2d_37_output                  (1,4,4,575) (73)     
------ ---------------------- ---- ---------------------- --------- ------- ------------------------------------ -------------------- 
44     conv2d_38              38   conv2d                 883296    55584   I: conv2d_37_output                  (1,4,4,575) (73)     
                                                                            S: conv2d_38_scratch0                                     
                                                                            W: conv2d_38_weights                 (575,1,1,96) (144)   
                                                                            W: conv2d_38_bias                    (96,) (145)          
                                                                            O: conv2d_38_output                  (1,4,4,96) (74)      
------ ---------------------- ---- ---------------------- --------- ------- ------------------------------------ -------------------- 
45     eltwise_39             39   eltwise_integer/sum    1536      0       I: conv2d_35_output                  (1,4,4,96) (70)      
                                                                            I: conv2d_38_output                  (1,4,4,96) (74)      
                                                                            O: eltwise_39_output                 (1,4,4,96) (75)      
------ ---------------------- ---- ---------------------- --------- ------- ------------------------------------ -------------------- 
46     conv2d_40              40   conv2d                 885312    57600   I: eltwise_39_output                 (1,4,4,96) (75)      
                                                                            S: conv2d_40_scratch0                                     
                                                                            W: conv2d_40_weights                 (96,1,1,576) (146)   
                                                                            W: conv2d_40_bias                    (576,) (147)         
                                                                            O: conv2d_40_output                  (1,4,4,576) (76)     
------ ---------------------- ---- ---------------------- --------- ------- ------------------------------------ -------------------- 
47     conv2d_41_pad_before   41   pad                    0         0       I: conv2d_40_output                  (1,4,4,576) (76)     
                                                                            O: conv2d_41_pad_before_output       (1,6,6,576) (77)     
------ ---------------------- ---- ---------------------- --------- ------- ------------------------------------ -------------------- 
48     conv2d_41              41   conv2d                 83520     7488    I: conv2d_41_pad_before_output       (1,6,6,576) (77)     
                                                                            S: conv2d_41_scratch0                                     
                                                                            W: conv2d_41_weights                 (576,3,3,1) (148)    
                                                                            W: conv2d_41_bias                    (576,) (149)         
                                                                            O: conv2d_41_output                  (1,4,4,576) (78)     
------ ---------------------- ---- ---------------------- --------- ------- ------------------------------------ -------------------- 
49     conv2d_42              42   conv2d                 884832    55680   I: conv2d_41_output                  (1,4,4,576) (78)     
                                                                            S: conv2d_42_scratch0                                     
                                                                            W: conv2d_42_weights                 (576,1,1,96) (150)   
                                                                            W: conv2d_42_bias                    (96,) (151)          
                                                                            O: conv2d_42_output                  (1,4,4,96) (79)      
------ ---------------------- ---- ---------------------- --------- ------- ------------------------------------ -------------------- 
50     eltwise_43             43   eltwise_integer/sum    1536      0       I: eltwise_39_output                 (1,4,4,96) (75)      
                                                                            I: conv2d_42_output                  (1,4,4,96) (79)      
                                                                            O: eltwise_43_output                 (1,4,4,96) (80)      
------ ---------------------- ---- ---------------------- --------- ------- ------------------------------------ -------------------- 
51     conv2d_44              44   conv2d                 885312    57600   I: eltwise_43_output                 (1,4,4,96) (80)      
                                                                            S: conv2d_44_scratch0                                     
                                                                            W: conv2d_44_weights                 (96,1,1,576) (152)   
                                                                            W: conv2d_44_bias                    (576,) (153)         
                                                                            O: conv2d_44_output                  (1,4,4,576) (81)     
------ ---------------------- ---- ---------------------- --------- ------- ------------------------------------ -------------------- 
52     pool_45                45   pool                   9216      0       I: conv2d_44_output                  (1,4,4,576) (81)     
                                                                            O: pool_45_output                    (1,1,1,576) (82)     
------ ---------------------- ---- ---------------------- --------- ------- ------------------------------------ -------------------- 
53     gemm_46                46   dense                  15002     15080   I: pool_45_output                    (1,1,1,576) (82)     
                                                                            S: gemm_46_scratch0                                       
                                                                            W: gemm_46_weights                   (576,26) (154)       
                                                                            W: gemm_46_bias                      (26,) (155)          
                                                                            O: gemm_46_output                    (1,26) (83)          
------ ---------------------- ---- ---------------------- --------- ------- ------------------------------------ -------------------- 
54     nl_47                  47   nl                     390       0       I: gemm_46_output                    (1,26) (83)          
                                                                            S: nl_47_scratch0                                         
                                                                            O: nl_47_output                      (1,26) (84)          
------ ---------------------- ---- ---------------------- --------- ------- ------------------------------------ -------------------- 
55     conversion_48          48   converter              52        0       I: nl_47_output                      (1,26) (84)          
                                                                            O: conversion_48_output              (1,26) (85)          
------ ---------------------- ---- ---------------------- --------- ------- ------------------------------------ -------------------- 



Number of operations per c-layer
------- ------ ---------------------------------- ------------ ------------ --------- ---------- 
c_id    m_id   name (type)                                 #op         type    #param   sparsity 
------- ------ ---------------------------------- ------------ ------------ --------- ---------- 
0       0      conversion_0 (converter)                 98,304   conv_u8_s8           
1       1      conv2d_1 (optimized_conv2d)           1,769,488   smul_s8_s8       448     0.1272 
2       2      conv2d_3_pad_before (pad)                     0   smul_s8_s8           
3       3      conv2d_3 (conv2d)                       147,472   smul_s8_s8       160     0.0000 
4       4      conv2d_4 (conv2d)                       262,160   smul_s8_s8       272     0.1287 
5       5      conv2d_5 (conv2d)                     1,179,720   smul_s8_s8     1,224     0.0163 
6       6      conv2d_7_pad_before (pad)                     0   smul_s8_s8           
7       7      conv2d_7 (conv2d)                       165,960   smul_s8_s8       720     0.0264 
8       8      conv2d_8 (conv2d)                       442,392   smul_s8_s8     1,752     0.0217 
9       9      conv2d_9 (conv2d)                       540,760   smul_s8_s8     2,200     0.0155 
10      10     conv2d_10_pad_before (pad)                    0   smul_s8_s8           
11      10     conv2d_10 (conv2d)                      202,840   smul_s8_s8       880     0.0159 
12      11     conv2d_11 (conv2d)                      540,696   smul_s8_s8     2,136     0.0136 
13      12     eltwise_12 (eltwise_integer/sum)          6,144     op_s8_s8           
14      13     conv2d_13 (conv2d)                      589,920   smul_s8_s8     2,400     0.0092 
15      14     conv2d_15_pad_before (pad)                    0   smul_s8_s8           
16      15     conv2d_15 (conv2d)                       55,392   smul_s8_s8       960     0.0000 
17      16     conv2d_16 (conv2d)                      245,800   smul_s8_s8     3,880     0.0126 
18      17     conv2d_17 (conv2d)                      609,518   smul_s8_s8     9,799     0.0117 
19      18     conv2d_18_pad_before (pad)                    0   smul_s8_s8           
20      18     conv2d_18 (conv2d)                      137,903   smul_s8_s8     2,390     0.0167 
21      19     conv2d_19 (conv2d)                      611,880   smul_s8_s8     9,600     0.0144 
22      20     eltwise_20 (eltwise_integer/sum)          2,560     op_s8_s8           
23      21     conv2d_21 (conv2d)                      614,640   smul_s8_s8     9,840     0.0117 
24      22     conv2d_22_pad_before (pad)                    0   smul_s8_s8           
25      22     conv2d_22 (conv2d)                      138,480   smul_s8_s8     2,400     0.0112 
26      23     conv2d_23 (conv2d)                      614,440   smul_s8_s8     9,640     0.0169 
27      24     eltwise_24 (eltwise_integer/sum)          2,560     op_s8_s8           
28      25     conv2d_25 (conv2d)                      307,320   smul_s8_s8     4,920     0.0116 
29      26     conv2d_26_pad_before (pad)                    0   smul_s8_s8           
30      26     conv2d_26 (conv2d)                       69,240   smul_s8_s8     1,200     0.0142 
31      27     conv2d_27 (conv2d)                      368,688   smul_s8_s8     5,808     0.0124 
32      28     conv2d_28 (conv2d)                      442,512   smul_s8_s8     7,056     0.0082 
33      29     conv2d_29_pad_before (pad)                    0   smul_s8_s8           
34      29     conv2d_29 (conv2d)                       83,088   smul_s8_s8     1,440     0.0083 
35      30     conv2d_30 (conv2d)                      442,416   smul_s8_s8     6,960     0.0103 
36      31     eltwise_31 (eltwise_integer/sum)          3,072     op_s8_s8           
37      32     conv2d_32 (conv2d)                      885,024   smul_s8_s8    14,112     0.0099 
38      33     conv2d_34_pad_before (pad)                    0   smul_s8_s8           
39      34     conv2d_34 (conv2d)                       41,760   smul_s8_s8     2,880     0.0014 
40      35     conv2d_35 (conv2d)                      442,464   smul_s8_s8    27,744     0.0120 
41      36     conv2d_36 (conv2d)                      882,238   smul_s8_s8    55,775     0.0092 
42      37     conv2d_37_pad_before (pad)                    0   smul_s8_s8           
43      37     conv2d_37 (conv2d)                       83,375   smul_s8_s8     5,750     0.0061 
44      38     conv2d_38 (conv2d)                      883,296   smul_s8_s8    55,296     0.0146 
45      39     eltwise_39 (eltwise_integer/sum)          1,536     op_s8_s8           
46      40     conv2d_40 (conv2d)                      885,312   smul_s8_s8    55,872     0.0096 
47      41     conv2d_41_pad_before (pad)                    0   smul_s8_s8           
48      41     conv2d_41 (conv2d)                       83,520   smul_s8_s8     5,760     0.0057 
49      42     conv2d_42 (conv2d)                      884,832   smul_s8_s8    55,392     0.0139 
50      43     eltwise_43 (eltwise_integer/sum)          1,536     op_s8_s8           
51      44     conv2d_44 (conv2d)                      885,312   smul_s8_s8    55,872     0.0105 
52      45     pool_45 (pool)                            9,216     op_s8_s8           
53      46     gemm_46 (dense)                          15,002   smul_s8_s8    15,002     0.0309 
54      47     nl_47 (nl)                                  390     op_s8_s8           
55      48     conversion_48 (converter)                    52   conv_s8_u8           
------- ------ ---------------------------------- ------------ ------------ --------- ---------- 
total                                               16,680,230                437,540     0.0124 

Number of operation types
---------------- ------------ ----------- 
operation type              #           % 
---------------- ------------ ----------- 
conv_u8_s8             98,304        0.6% 
smul_s8_s8         16,554,860       99.2% 
op_s8_s8               27,014        0.2% 
conv_s8_u8                 52        0.0% 

Complexity report (model)
------ -------------------------- ------------------------- ------------------------- ---------- 
m_id   name                       c_macc                    c_rom                     c_id       
------ -------------------------- ------------------------- ------------------------- ---------- 
0      serving_default_input_80   |                  0.6%   |                  0.0%   [0]        
1      conv2d_1                   ||||||||||||||||  10.6%   |                  0.1%   [1]        
2      pad_2                      |                  0.0%   |                  0.0%   [2]        
3      conv2d_3                   ||                 0.9%   |                  0.0%   [3]        
4      conv2d_4                   |||                1.6%   |                  0.1%   [4]        
5      conv2d_5                   |||||||||||        7.1%   |                  0.3%   [5]        
6      pad_6                      |                  0.0%   |                  0.0%   [6]        
7      conv2d_7                   ||                 1.0%   |                  0.2%   [7]        
8      conv2d_8                   ||||               2.7%   |                  0.4%   [8]        
9      conv2d_9                   |||||              3.2%   |                  0.5%   [9]        
10     conv2d_10                  ||                 1.2%   |                  0.3%   [10, 11]   
11     conv2d_11                  |||||              3.2%   |                  0.5%   [12]       
12     eltwise_12                 |                  0.0%   |                  0.0%   [13]       
13     conv2d_13                  ||||||             3.5%   |                  0.6%   [14]       
14     pad_14                     |                  0.0%   |                  0.0%   [15]       
15     conv2d_15                  |                  0.3%   |                  0.3%   [16]       
16     conv2d_16                  |||                1.5%   ||                 0.9%   [17]       
17     conv2d_17                  ||||||             3.7%   |||                2.3%   [18]       
18     conv2d_18                  ||                 0.8%   |                  0.7%   [19, 20]   
19     conv2d_19                  ||||||             3.7%   |||                2.1%   [21]       
20     eltwise_20                 |                  0.0%   |                  0.0%   [22]       
21     conv2d_21                  ||||||             3.7%   |||                2.3%   [23]       
22     conv2d_22                  ||                 0.8%   |                  0.7%   [24, 25]   
23     conv2d_23                  ||||||             3.7%   |||                2.1%   [26]       
24     eltwise_24                 |                  0.0%   |                  0.0%   [27]       
25     conv2d_25                  |||                1.8%   ||                 1.2%   [28]       
26     conv2d_26                  |                  0.4%   |                  0.3%   [29, 30]   
27     conv2d_27                  ||||               2.2%   ||                 1.3%   [31]       
28     conv2d_28                  ||||               2.7%   ||                 1.6%   [32]       
29     conv2d_29                  |                  0.5%   |                  0.4%   [33, 34]   
30     conv2d_30                  ||||               2.7%   ||                 1.6%   [35]       
31     eltwise_31                 |                  0.0%   |                  0.0%   [36]       
32     conv2d_32                  ||||||||           5.3%   ||||               3.3%   [37]       
33     pad_33                     |                  0.0%   |                  0.0%   [38]       
34     conv2d_34                  |                  0.3%   |                  0.8%   [39]       
35     conv2d_35                  ||||               2.7%   ||||||||           6.2%   [40]       
36     conv2d_36                  ||||||||           5.3%   |||||||||||||||   12.6%   [41]       
37     conv2d_37                  |                  0.5%   ||                 1.6%   [42, 43]   
38     conv2d_38                  ||||||||           5.3%   |||||||||||||||   12.2%   [44]       
39     eltwise_39                 |                  0.0%   |                  0.0%   [45]       
40     conv2d_40                  ||||||||           5.3%   ||||||||||||||||  12.6%   [46]       
41     conv2d_41                  |                  0.5%   ||                 1.6%   [47, 48]   
42     conv2d_42                  ||||||||           5.3%   |||||||||||||||   12.2%   [49]       
43     eltwise_43                 |                  0.0%   |                  0.0%   [50]       
44     conv2d_44                  ||||||||           5.3%   ||||||||||||||||  12.6%   [51]       
45     pool_45                    |                  0.1%   |                  0.0%   [52]       
46     model_2_dense_2_MatMul     |                  0.1%   ||||               3.3%   [53]       
47     nl_47                      |                  0.0%   |                  0.0%   [54]       
48     conversion_48              |                  0.0%   |                  0.0%   [55]       
------ -------------------------- ------------------------- ------------------------- ---------- 
macc=16,680,230 weights=455,776 act=82,648 ram_io=0

Generated files (7)
------------------------------------------------------------ 
C:\Users\zevni\.stm32cubemx\mnv1_output\mnv1_config.h        
C:\Users\zevni\.stm32cubemx\mnv1_output\mnv1.h               
C:\Users\zevni\.stm32cubemx\mnv1_output\mnv1.c               
C:\Users\zevni\.stm32cubemx\mnv1_output\mnv1_data_params.h   
C:\Users\zevni\.stm32cubemx\mnv1_output\mnv1_data_params.c   
C:\Users\zevni\.stm32cubemx\mnv1_output\mnv1_data.h          
C:\Users\zevni\.stm32cubemx\mnv1_output\mnv1_data.c          
